data.pth (torch, 59882 bytes, 6 tensors)

l1.weight f4 [8, 796]
000000 a0 4b 91 3f 06 e5 b6 bc 39 37 d9 3e ca f6 b0 bd
       1.1351204 -0.022326004 0.42424944 -0.08640821
000010 d1 04 84 bf 6b 64 4f bd 7e b2 82 bf db b1 23 3d
       -1.031397 -0.050632875 -1.0210721 0.039964538
000020 a5 35 5e 3f 13 16 9b 3f 69 4c c8 be d6 aa 96 be
       0.86800605 1.2116112 -0.39120796 -0.29427212
000030 9c 5d 5c 3f 95 0d ad 3f 9a b2 c5 3e d4 3f 82 3e
       0.86080337 1.351977 0.38612825 0.25439322
000040 ce 7c 43 40 57 1c 6d 3f e6 50 9d 3e ad 08 3b 3f
       3.0544925 0.9262137 0.30725783 0.73060113
000050 6d 94 8f bf 93 9c f6 3e ec 56 a3 be e6 40 41 bf
       -1.1217171 0.48166332 -0.31902254 -0.7548965
000060 1d 97 b9 be 80 19 c7 3f ba a6 42 3e 75 cc 96 40
       -0.36248103 1.5554657 0.19008914 4.712458
000070 9f 25 61 40 46 f4 a2 40 c1 fe af 3b ab c8 3a 40
       3.5179212 5.0923185 0.005370945 2.9184978
000080 9e 0f 11 40 fd ed 25 40 f1 c2 2b 40 bd f0 7c bf
       2.2665782 2.5926507 2.6837733 -0.9880484
000090 cb 19 52 be 4f b5 7a bf 86 31 2f 3f b8 e9 5c 3f
       -0.20517652 -0.97932905 0.6843494 0.86294127
0000a0 cc 46 a0 3f ab a4 08 40 9d b9 e0 3f 89 cc 5b 40
       1.2521605 2.1350505 1.7556645 3.4343588
0000b0 1c 02 4b 40 c4 72 df 3f 01 3e f3 be 21 c6 68 bf
       3.1720037 1.7456899 -0.47508243 -0.9092732
0000c0 0d fc 11 3f 5c d2 93 40 5e c2 78 bf 2f 5d ce 3f
       0.57025224 4.6194286 -0.9717158 1.6122187
0000d0 3a cb 88 3f 23 ef 80 bf 90 ea 0a 40 a6 92 4c 40
       1.068702 -1.0072979 2.1705666 3.1964507
0000e0 d1 3e 25 40 7b ef a8 3e 91 83 1a be 67 c0 65 3f
       2.581959 0.3299521 -0.15089251 0.8974671
0000f0 e8 d4 c5 bd ca 25 41 40 39 d3 5a be d4 87 79 bf
       -0.09659749 3.0179315 -0.21369638 -0.9747288
000100 0a d9 78 bf 25 62 14 40 68 39 38 40 62 08 a4 3f
       -0.97206175 2.3184903 2.8785038 1.2815058
000110 b3 aa 78 bd da 14 8f 3f bf 15 47 bd 10 a6 77 bf
       -0.060709666 1.1178238 -0.048604723 -0.96737766
000120 4b 9a 7b bf e3 90 78 bf b9 02 6e bf fe 92 7a bf
       -0.9828231 -0.9709608 -0.92972904 -0.9788054
000130 38 75 12 be 25 13 7e bf fc 77 21 40 96 93 07 40
       -0.14302528 -0.9924796 2.5229483 2.118383
000140 5c 9c 5f 3f 4b d3 7b bf 5d 77 77 bf 74 01 02 40
       0.8734796 -0.9836928 -0.9666651 2.0313387
000150 7b 8c 7e bf a0 24 06 40 64 94 22 40 7a fd 7c bf
       -0.99433106 2.0959854 2.540307 -0.98824275
000160 3b 73 a4 3f 1c 66 30 3e 81 2a 90 3f 5e 36 7e bf
       1.2847666 0.17226452 1.1262971 -0.9930171
000170 38 40 34 3f 1a 0b 7d bf e8 c4 cf 3c 9a c3 00 bf
       0.7041049 -0.98845065 0.025362447 -0.50298464
000180 eb 75 79 bf 7b e3 f7 be 2f ea b1 bd 58 40 69 3d
       -0.97445554 -0.4841574 -0.08687245 0.05694613
000190 d1 3f d0 3e 40 3a 9a be ca f7 b6 be e8 b8 ed 3c
       0.40673688 -0.30122566 -0.35735923 0.029018834
0001a0 a1 5e 83 be 94 4b dd 3e 30 6e a6 bc d1 5e a7 3e
       -0.25658134 0.43221724 -0.020316213 0.32689527
0001b0 ff b7 55 be 9e 93 b2 be c5 bd 47 bf f8 e2 03 40
       -0.2087097 -0.34878248 -0.7802394 2.060728
0001c0 26 9a 44 3f 5d 5a 3d bf 9a 37 7a bf 25 92 04 bf
       0.7679771 -0.7396601 -0.9774109 -0.517855
0001d0 f5 d5 bc bd 87 10 34 bf cd d2 d9 bd 3a f9 32 3f
       -0.092204966 -0.7033772 -0.1063591 0.6991154
0001e0 83 7f 79 be 31 ef e9 3e e0 b1 71 bd ec 33 8c be
       -0.24365048 0.456903 -0.059007525 -0.27383363
0001f0 44 b9 79 3f d4 e8 b3 3e e1 6d 90 3f f5 59 82 3f
       0.9754832 0.3513857 1.1283532 1.0183703
000200 b9 d0 62 be 3e 1e fe 3e e1 d2 ad 3f d1 66 2d bf
       -0.22149934 0.49632448 1.357998 -0.6773501
000210 c6 25 47 bc 1a b3 8f 3f 7a 21 62 bf d1 f8 36 3d
       -0.012155002 1.1226532 -0.8833233 0.044670884
000220 50 f7 19 3f cc b9 37 40 b4 bd a3 3f c2 66 0f c0
       0.60142994 2.8707151 1.2792268 -2.2406468
000230 97 72 a0 be 47 35 92 bf ab 0e 4a 3f 2b f1 a9 3f
       -0.31337425 -1.1422509 0.7892863 1.3276724
000240 5f 31 86 3f fe 83 c0 3e b9 4a b5 3f 40 5d ac 3f
       1.0483817 0.37600702 1.4163429 1.3465958
000250 fc fc c0 3f 4d 1b 3a 3f 8a aa bd bd 0c af ae be
       1.5077205 0.7269791 -0.09261043 -0.34117925
000260 32 9e be be d9 24 62 3f 81 d4 56 3f 2d aa a8 36
       -0.37230068 0.88337475 0.83918005 5.0266012e-06
000270 9e 7b f8 be 1d de cc be dc 10 b4 be 99 fd 3f bc
       -0.48531812 -0.4001321 -0.35169113 -0.011718177
000280 da a7 91 bf 31 ba 5f 3e d2 6f 2f bf 18 8d 9e 3f
       -1.1379349 0.2184837 -0.6853 1.2386808
000290 07 68 39 3f fe c4 7d bf 25 fa 24 3e e1 9f b8 3e
       0.7242436 -0.9912871 0.16111048 0.36059478
0002a0 0c 1f 0d bf 9d d8 2b 3f c2 66 fc 3f 26 3c d9 3f
       -0.551255 0.671274 1.9718859 1.6971481
0002b0 47 27 78 be 85 39 35 3f 69 47 2a be 49 45 26 3f
       -0.24233733 0.7079089 -0.16628803 0.6494947
0002c0 59 51 24 bf 72 15 a1 bf e7 18 ae be db 87 8e be
       -0.64186627 -1.258467 -0.34003374 -0.27838024
0002d0 02 3e 91 bf d5 0d c6 3f 1a eb 34 3e 2f 23 1a bf
       -1.1347048 1.5472971 0.17667809 -0.60209936
0002e0 32 be a1 3e 3d 39 fe bf b1 c5 fc 3f 36 c5 c1 be
       0.3159042 -1.9861218 1.9747831 -0.37845773
0002f0 3b f6 90 40 e0 98 0a 3f 41 83 41 3f d6 32 7a be
       4.5300574 0.5413952 0.755909 -0.24433455
000300 35 31 1e be f5 2c 90 3e 54 37 f2 3f 36 f8 d7 3e
       -0.15448458 0.281593 1.8923135 0.42181557
000310 93 b3 9f c0 8a 31 b4 3e 5d 83 f2 3e 29 c0 34 be
       -4.9906707 0.35194045 0.47365847 -0.17651428
000320 a2 18 52 bf 96 b7 6a be d1 54 36 3f b8 be 2f bd
       -0.82068837 -0.22921595 0.7122317 -0.042906493
000330 33 a1 a9 be dc f9 9c 3f 84 0f 27 c0 1e bb 22 40
       -0.33130798 1.2263751 -2.610322 2.5426707
000340 5b 85 02 bf 73 ac 71 3e 29 28 1e bf 54 d6 17 40
       -0.50984734 0.2360094 -0.6178003 2.3724566
000350 8a 67 59 be a3 b7 40 be aa 0c 17 bf c8 a2 47 c0
       -0.21230903 -0.18820052 -0.590037 -3.1193104
000360 4f 10 28 c0 4f c1 04 40 fd a2 14 3c 12 12 4c 3f
       -2.6259954 2.0742986 0.009072063 0.79715073
000370 5a 13 95 3c 37 67 d1 bd 7f 24 ba be dc 07 a9 3e
       0.018197704 -0.10224765 -0.3635597 0.3301381
000380 26 ff 1c 40 40 1b fd bc 86 b3 8f 3f f8 92 f4 be
       2.453073 -0.030896783 1.1226661 -0.47768378
000390 01 2e 15 40 ce 6d 1b 3f b6 da 83 3f b7 94 33 3f
       2.3309329 0.60714424 1.030112 0.70148796
0003a0 07 3f 09 be 13 19 2e 3f 2e 0d 44 bf d9 0d 0d bf
       -0.1340295 0.6800701 -0.7658261 -0.55099255
0003b0 2a b1 6f 3e 5b 69 82 be de 4e 02 bf 30 c9 81 3e
       0.23407426 -0.25471005 -0.5090159 0.25348806
0003c0 b4 29 26 bf b0 ed a6 3f f6 66 a2 be 2d 72 48 bf
       -0.64907384 1.3041286 -0.31719178 -0.7829922
0003d0 0a a7 38 3f fe 20 d7 be eb 3a 8e 3f 74 43 bf 3c
       0.7212988 -0.4201736 1.111173 0.023347594
0003e0 fb 71 3d bf 53 16 eb be f1 66 ad 3f 14 81 11 bd
       -0.74002045 -0.4591547 1.354704 -0.03552349
0003f0 46 d5 0c bf 73 73 e2 3f 3b b6 86 3f 51 82 2e 3f
       -0.5501293 1.7691482 1.0524362 0.681676

l1.bias f4 [8]
000000 b2 f6 be 3e 8c f3 37 3f 5a 8a 8a 3f 12 9b ba 3e
       0.3729759 0.71856 1.0823472 0.36446434
000010 2d e6 b3 3e d5 b0 82 3f 05 5f 91 3f 09 0a 05 3f
       0.35136548 1.0210215 1.1357123 0.5196844

l2.weight f4 [8, 8]
000000 43 3e bf 3c 60 a4 22 be f4 0c dc 3d 25 61 44 be
       0.023345118 -0.15883017 0.10744658 -0.19177683
000010 2f 43 c7 be aa 06 a6 be e0 b1 2c bd 9e 7e 99 be
       -0.38918445 -0.3242696 -0.042161822 -0.29979414
000020 a1 0b 35 c0 fe 64 25 40 1b 67 41 bf 9d 43 59 40
       -2.8288348 2.584289 -0.7554795 3.3947518
000030 3b e6 7d 3f 7a eb b1 be 8c d0 2d bf cb 14 39 40
       0.9917943 -0.34749967 -0.6789634 2.891894
000040 82 81 ca 3e 33 05 33 40 43 62 99 be 44 f1 d5 bf
       0.39551932 2.7971923 -0.2995778 -1.6714253
000050 c3 b2 29 3f 21 b7 49 40 72 42 bc 3f 90 0b 33 c0
       0.66288394 3.1518023 1.4707778 -2.7975807
000060 df 02 66 3e 1e 48 26 c0 d0 a5 f2 bd 63 c3 59 be
       0.22462033 -2.5981517 -0.118480325 -0.2126594
000070 4d ca 0d c0 d2 33 50 40 f2 7b e7 3e d6 80 3e 40
       -2.2154725 3.2531629 0.4521175 2.9766135
000080 b2 b6 1b c0 65 ba aa bf a6 3d b0 3f 4a 40 ac 3c
       -2.4330258 -1.3338133 1.3768814 0.02102675
000090 c6 88 3b 3f 7b f2 7b bf 4a 20 7b 40 41 de 84 3d
       0.73255575 -0.9841687 3.9238458 0.06487704
0000a0 d7 82 9a be e4 e3 09 3e 6f c3 83 3e 36 85 a9 3c
       -0.30177948 0.1346584 0.25735041 0.020693403
0000b0 cf 06 c9 bd 89 36 a8 be 1d 8b 8a be 6e 65 b2 be
       -0.09815752 -0.32854107 -0.2705926 -0.3484301
0000c0 4b 4c 88 40 42 2e 1c c0 6a 41 94 3e 80 2a 09 40
       4.259313 -2.4403234 0.28956157 2.143219
0000d0 ec 1b 13 40 7c c8 55 be 62 98 65 be ff 55 1b 3e
       2.2985792 -0.2087726 -0.2242141 0.15169524
0000e0 dd 87 31 40 ff e9 3d 3f 0e 33 76 40 3b c8 ea bf
       2.7739174 0.74185175 3.8468661 -1.8342355
0000f0 0f 45 d4 3f 05 f1 04 3e d8 48 a4 bf 22 04 0c 3f
       1.6583575 0.12982567 -1.283473 0.54693806

l2.bias f4 [8]
000000 6c fa dc bd 2f 79 cf be 44 d2 fc 3e a8 68 25 3f
       -0.10789952 -0.40522143 0.4937917 0.6461282
000010 28 14 5a 3f 7b ac e8 bd a6 e0 2c bf af b0 08 3f
       0.85187006 -0.11361023 -0.67530286 0.533946

l3.weight f4 [186, 8]
000000 98 51 7b 3d e8 65 cc c0 34 2e 2e be a5 20 c7 3e
       0.06135711 -6.3874397 -0.17009813 0.38892093
000010 e8 1d 0f bf 38 99 2b bd 65 8f 13 c0 d8 9e a2 3e
       -0.5590501 -0.041894168 -2.305627 0.31761813
000020 79 97 52 3e 8b 6b 91 c0 5b 94 2a c0 06 8a 4e 3f
       0.20565595 -4.544378 -2.665305 0.8067936
000030 98 6b 00 c1 e0 cb 35 3c dd 51 7c bd 20 2a 97 3e
       -8.026268 0.011095971 -0.06160151 0.29524326
000040 97 e8 75 3e aa 5e 00 3d 3d f3 6b c0 00 f7 a2 bf
       0.24014507 0.03134028 -3.686721 -1.2731628
000050 ab 52 79 c0 ff cc 92 3e e8 92 a8 3d eb 62 f3 3e
       -3.8956707 0.28672025 0.08231145 0.47536406
000060 81 95 34 3d 4d c4 2e bf be 3f 22 bf 56 b7 8f 3d
       0.04408789 -0.6826828 -0.6337851 0.070173904
000070 a6 3d b1 c0 b9 e7 8c 3e f0 1b 07 3f 8b 14 bf bf
       -5.5387754 0.2752054 0.52777004 -1.4928144
000080 1a ec 9b be 48 82 86 bf 90 bf 96 3f b6 a0 92 bf
       -0.3045357 -1.0508509 1.177721 -1.1455295
000090 92 cc 16 bf 2c 2d ac 3d 1a f9 c7 bf ae 49 00 c1
       -0.589059 0.08407053 -1.5622895 -8.017988
0000a0 92 9d 86 be 6b 26 b8 bf 76 bc 5f 3f 39 74 dc bf
       -0.26292092 -1.4386724 0.87396944 -1.7222968
0000b0 16 64 22 c1 7e 31 46 3e 61 81 df bf 22 d3 e8 bc
       -10.149435 0.19354817 -1.7461358 -0.028420988
0000c0 97 67 0a 3e 37 c9 11 bf 09 fa a0 bf b6 a1 fa 3e
       0.13516079 -0.56947654 -1.2576305 0.489515
0000d0 00 af 48 be a0 a2 54 3c 59 03 dc be c9 74 c1 be
       -0.19598007 0.012978226 -0.42971304 -0.37784413
0000e0 94 d6 2e 3e 6a 07 06 c0 92 65 f8 be ff 15 3c 3f
       0.17074043 -2.0942025 -0.48514992 0.73471063
0000f0 ef d4 12 c1 52 ac 5c 3e a6 6f 3a bf f8 d6 f9 be
       -9.176986 0.2155011 -0.7282661 -0.4879682
000100 89 dc ab be 86 2c 13 c0 1e cd 07 3e e4 29 cc 3e
       -0.33566692 -2.2995925 0.1326184 0.3987571
000110 ae 32 97 bf be 33 54 3e 52 96 e4 3c 84 19 5e c0
       -1.1812341 0.20722863 0.02790371 -3.4703074
000120 4d 0a e4 bd 9e ef 46 3c 32 85 04 3f af fc c0 bf
       -0.11134777 0.01214209 0.5176574 -1.5077113
000130 15 45 ee be fe 90 25 3e 74 eb e0 c0 32 06 fe bf
       -0.4653708 0.16168591 -7.028742 -1.9845641
000140 ff 9b c1 3c 16 b7 fc be 99 83 37 3e 67 9c 97 3d
       0.023633955 -0.49358433 0.17921294 0.07402878
000150 33 fd 0c c0 1b c5 af 3e b1 c7 95 bf 96 47 f6 be
       -2.202954 0.34330067 -1.1701566 -0.4810149
000160 a3 da 6b 3e 96 c6 5e c0 38 31 3a 3e 9c 24 60 3f
       0.23032622 -3.4808707 0.18182838 0.8755586
000170 e9 dc 0e c0 da a3 00 3e a4 33 93 c0 11 d4 2d bf
       -2.2322333 0.12562504 -4.600054 -0.6790171
000180 de 29 bb bd dc a8 c6 c0 fc 3e 4c 3f b9 ae 67 3e
       -0.09138845 -6.2081127 0.79783607 0.22625245
000190 11 5f 09 bf 70 20 e0 bc 66 1a 21 bf 03 49 ce c0
       -0.53660685 -0.027359217 -0.62930906 -6.4464126
0001a0 19 03 58 3e ed ae 42 bf 53 d1 80 3e 33 46 8b bf
       0.21094932 -0.76048166 0.25159702 -1.0880798
0001b0 cd 7d 49 bf 80 7c eb 3c 7c 26 02 3f 76 d6 e5 c0
       -0.7870758 0.02874589 0.5083997 -7.1824293
0001c0 18 87 a5 be 42 53 61 3d a9 03 80 be cd 42 d8 bb
       -0.3232963 0.05501104 -0.25002792 -0.00659976
0001d0 f3 df 3a c0 f8 ec 5d bd f0 77 94 bf 64 e0 2b be
       -2.9199188 -0.05418107 -1.1599102 -0.16784817
0001e0 12 91 40 3e e2 97 c4 c0 fb 53 39 3f 44 05 d8 3e
       0.1880534 -6.1435404 0.7239377 0.42191517
0001f0 c7 8d 0d c1 80 40 23 3d 68 bd 0a c0 d2 75 3e bf
       -8.847114 0.039856434 -2.1678104 -0.7439853
000200 f6 0a 2a 3e 63 f7 8f bd cf 34 15 3c c3 4e 5a bf
       0.16605744 -0.07029607 0.009106829 -0.8527643
000210 2a b1 08 c0 e8 2d e4 3d e4 bc 02 3f e3 0f e1 c0
       -2.1358132 0.111415684 0.51069474 -7.0331893
000220 3a e5 79 3e 60 ed 82 bf 0d cb f7 3e 66 56 97 bf
       0.24403849 -1.0228691 0.48397103 -1.1823242
000230 ab 37 16 c1 a1 6a af be c3 e4 1b c1 5e f8 62 3f
       -9.388591 -0.3426104 -9.74335 0.8866023
000240 47 d8 21 3e 9c 6b ab 3e 77 4f a8 3e 77 7e 9b bf
       0.1580516 0.33480537 0.32873127 -1.2147969
000250 fd 93 d2 c0 c4 29 8b bd 48 9c bc bf fd 56 65 c0
       -6.580565 -0.067950755 -1.4735193 -3.5834343
000260 f6 9a d8 bd 5e 48 c7 bf ff 6e 56 3f ed 72 5c bf
       -0.105764315 -1.556896 0.83763117 -0.8611286
000270 6d ea df c0 5c 20 03 be 2c bf a9 bc bc 34 a7 bf
       -6.9973664 -0.12805313 -0.02072104 -1.3062968
000280 02 61 85 3e 18 c9 77 bf 5c 19 8e c0 a0 04 28 3f
       0.26050574 -0.9679122 -4.4405956 0.6563206
000290 77 b2 08 bf 3c 75 1d 3e 9e c9 d2 c0 2f 11 1d 3f
       -0.53397316 0.15376753 -6.5871115 0.61354345
0002a0 c4 2d cb 3d aa 40 a7 bf 02 20 f1 bf a9 37 b7 3f
       0.099208385 -1.3066609 -1.8837893 1.4313861
0002b0 59 97 7a c0 fc f8 a8 3d bc dd 2e c0 d5 bd 31 c0
       -3.9154875 0.08250615 -2.7322836 -2.7772114
0002c0 f4 f5 ab be 7e 6c d6 bf 3b 68 07 c0 a7 af 3a 3f
       -0.33586085 -1.6751859 -2.1157367 0.72924274
0002d0 e6 d0 fb c0 8d 61 50 be 5e 1c c5 bf 1f c3 43 3f
       -7.8692503 -0.20349713 -1.5399282 0.76469606
0002e0 67 a0 c7 3c 29 50 82 bf 7a ce 2b 3f f0 c8 3b bf
       0.024368478 -1.0180713 0.67111933 -0.7335348
0002f0 86 dc 7b 3e 80 68 99 be ba e0 3a c1 33 ab 17 c0
       0.24595842 -0.2996254 -11.679865 -2.3698242
000300 5c d0 a9 be a7 36 95 be ad 6b 3d 3e 1e e7 71 bf
       -0.33166778 -0.2914326 0.18498106 -0.9449328
000310 fb 21 23 c1 9a e8 54 3e 4b 97 07 3f 34 79 10 c0
       -10.195796 0.20791855 0.5296523 -2.2573977
000320 02 2f 04 3d 51 d1 18 bf df 6d 78 bf 0b 03 f5 bd
       0.032271393 -0.5969439 -0.9704265 -0.11963471
000330 da 76 f5 c0 72 91 5f 3e c8 90 88 c0 e9 aa a7 3f
       -7.6707582 0.21832827 -4.2676735 1.3099033
000340 b6 38 e4 bc 52 1c 25 c0 74 50 d2 3d 69 29 5d 3f
       -0.027859073 -2.5798535 0.102692515 0.8639131
000350 75 ef df be 51 de 01 be 3a fb 32 c1 42 33 ba bf
       -0.4373738 -0.12682463 -11.186335 -1.4546893
000360 73 9e 05 be 08 b9 38 3f 7d 3f 0e c0 4c 9c d6 be
       -0.13048725 0.72157335 -2.222625 -0.4191612
000370 87 24 eb c0 a8 6a 44 bd bf 6f c9 c0 fa 84 91 c0
       -7.348209 -0.047953278 -6.294891 -4.5474825
000380 fe c9 41 bd 5f 22 c8 bf 4b 08 d5 c0 2d d8 25 3f
       -0.047311775 -1.5635489 -6.6572623 0.64782983
000390 bc 2f 29 c0 de 53 98 be 0d 0f f1 3c 41 04 b4 3e
       -2.6435385 -0.29751486 0.029426122 0.35159495
0003a0 39 e5 9d 3e 34 82 f7 be b4 37 25 c0 b8 37 71 3f
       0.30838946 -0.48341525 -2.5815248 0.94225645
0003b0 85 76 56 3f b0 cb a9 3d 21 7a 22 c1 b0 5d 73 c0
       0.83774596 0.082908034 -10.154817 -3.8025932
0003c0 66 c8 8d be f4 6b d4 be c1 24 93 bf 08 e8 8a 3f
       -0.27691954 -0.41488612 -1.1495591 1.085206
0003d0 26 5c 09 c0 59 dd 37 be ad 12 8a c0 47 fb 36 c1
       -2.1462493 -0.17955531 -4.3147798 -11.436347
0003e0 20 fe 82 be 06 83 1d be 84 5e 5e 3f d1 55 68 bf
       -0.25584507 -0.15382013 0.8686297 -0.90755945
0003f0 0f 54 a6 bf c4 fd 30 be 67 c0 14 c1 e4 bf 0c c1
       -1.2994403 -0.17284304 -9.296973 -8.796848

l3.bias f4 [186]
000000 cf 75 2c c0 6a b8 92 bf 70 a3 8a bf 8d 50 2f c0
       -2.6946905 -1.1462529 -1.0831127 -2.7392914
000010 f7 63 25 3d d5 bd b8 3d 4e 17 08 bd 30 2a cd bf
       0.040378537 0.090205826 -0.03322535 -1.60285
000020 e0 cd 76 c0 52 29 c7 bf e9 67 82 be 37 38 e2 be
       -3.8563156 -1.5559485 -0.25469902 -0.44183514
000030 63 ba 78 be d0 4e 9d bf 47 6d 1d be bd f4 ff 3d
       -0.24289851 -1.2289677 -0.15373717 0.12497852
000040 c7 bc cf bf 0e ca d8 be 2a 1c 98 bf f9 f6 93 bf
       -1.6229485 -0.42341655 -1.1883595 -1.1559745
000050 a2 5e 28 bf c0 5f a2 bf 02 3f e4 bf e3 2e 15 bf
       -0.657694 -1.268547 -1.7831728 -0.5827467
000060 6f f1 06 c0 26 93 a8 bf 8c e1 bc bf 5f 65 84 bf
       -2.108486 -1.3169906 -1.4756331 -1.0343436
000070 57 af fd bd 5c e8 3a be 18 36 7e bf eb bc f0 bf
       -0.12386959 -0.182527 -0.9930129 -1.8807653
000080 9b 19 d2 be 3b 29 6d bf b0 d1 2c 3b 9a 1d a5 be
       -0.4103516 -0.9264104 0.00263701 -0.32249147
000090 2c c5 65 be 24 d8 80 bf fa e0 43 bf 08 df 4b bf
       -0.22438496 -1.0065961 -0.7651516 -0.79637194
0000a0 81 dd 44 3e 52 d8 b2 bf 55 cf ca be 5c 04 1f c0
       0.19225122 -1.3972266 -0.39611307 -2.484641
0000b0 b1 59 d3 bf 02 41 05 c0 a2 78 95 bf 37 22 9f bf
       -1.6511747 -2.0820928 -1.1677439 -1.2432317
0000c0 98 78 0d c0 d1 6f 95 3d 47 a3 ab be 01 36 2a c0
       -2.2104855 0.07296718 -0.33523008 -2.6595461
0000d0 66 4d 72 3f da 1d 97 be 5f b6 65 bf d1 cd 7e bf
       0.9464935 -0.29514962 -0.897314 -0.995328
0000e0 b4 cb 7d 3e 57 fc 9d 3f 6b e7 88 bf b4 b2 16 3e
       0.24784738 1.2342633 -1.0695623 0.14716607
0000f0 8e 35 af bf 61 dc 28 c0 2f d3 79 bf 4e 69 3c c0
       -1.3688219 -2.6384509 -0.97587866 -2.9439273
000100 b0 7f 85 bf 8f 90 10 3f eb e4 03 c0 8d 14 3e c0
       -1.0429592 0.5647058 -2.060847 -2.9700043
000110 20 1f 10 bc e3 4d 1a 3f 8b 2d fb be 26 b4 8e bf
       -0.008796483 0.60275096 -0.49058184 -1.1148727
000120 9e 7c 58 bf 92 3a 61 c0 ec cc 9e bf df 19 a4 bf
       -0.8456515 -3.5191998 -1.2406287 -1.2820395
000130 ca 15 d1 bf 2f 17 ef be d1 bd fd bf f5 4a 14 3f
       -1.6334774 -0.46697375 -1.9823552 0.57926875
000140 8d 74 68 c0 5a d5 fd be 78 eb 84 c0 d0 20 fb bf
       -3.6321137 -0.49576837 -4.1537437 -1.9619389
000150 b9 1d 0d c0 e1 d0 df bf b5 15 9e bf 84 c8 09 c0
       -2.2049391 -1.748562 -1.2350374 -2.1528635
000160 6b 87 44 c0 56 ad 24 bf 95 48 23 c0 f5 b9 5a c0
       -3.0707653 -0.6432699 -2.551305 -3.4176
000170 f0 0a ae 3e 64 9b 03 c0 df 75 a1 c0 ec 6f 27 c0
       0.3399272 -2.0563593 -5.0456386 -2.6162062
000180 ca d7 04 c0 06 24 b5 3e 6f 0c f5 3d 46 eb cb 3c
       -2.0756707 0.35379046 0.11965262 0.02489246
000190 fe ea 03 bf 83 fa 1e c0 5d 42 e2 bd 62 50 88 bf
       -0.51530445 -2.48404 -0.11047814 -1.0649531
0001a0 b2 ac 7d bd 20 48 14 3f 83 f9 5a 3e b8 06 cf bf
       -0.061932273 0.57922554 0.21384244 -1.6173925
0001b0 6a 23 da bf a7 60 ba be 2e 7a 09 3e a1 3d 15 c0
       -1.7042058 -0.36401865 0.13425514 -2.3318865
0001c0 c3 dc 57 c0 48 0e 17 c0 cf 68 69 bd 1b 28 64 bf
       -3.3728492 -2.3602467 -0.05698472 -0.89123696
0001d0 91 c4 a7 bf 37 ff 87 bf b5 b2 ce 3e 08 64 d3 be
       -1.3106862 -1.062476 0.40370718 -0.41287255
0001e0 82 48 a4 3d 09 fb f3 bd dc d7 54 bd b5 82 7a 3e
       0.08021642 -0.119131155 -0.051963672 0.24463923
0001f0 49 1c 31 c0 44 97 3c c0 4c e1 aa be 80 bb 75 c0
       -2.7673514 -2.9467325 -0.33375013 -3.839569
000200 b1 7d fb 3e fe 56 eb bf da bd 58 be b4 cc 7d c0
       0.49119332 -1.8385923 -0.21166173 -3.965619
000210 d5 ce ae 3f 95 e8 8b 3f fa f7 e9 bf e6 85 d8 bf
       1.365687 1.0930353 -1.8278801 -1.6915863
000220 cb 22 1e 3f 23 4b 83 c0 1c 13 a4 bf f2 66 26 3d
       0.6177184 -4.102922 -1.2818332 0.04062552
000230 f8 3a 3a c0 13 24 9e c0 bb b9 39 bf 0a ef 67 bf
       -2.9098492 -4.9419036 -0.7254903 -0.9059912
000240 1d 5b 26 c0 b7 fe 25 c0 ee 8a 6b bf ac 4e a0 be
       -2.599311 -2.5936716 -0.92008865 -0.31310022
000250 c3 34 20 be c3 21 49 3e 34 bb d5 3d 98 54 ab 3e
       -0.15645127 0.19641785 0.10436097 0.33462977
000260 c7 0a bc bf f0 a9 3f c0 bb ab e2 bf 08 87 66 bf
       -1.4690789 -2.9947472 -1.7708658 -0.9004979
000270 40 b1 2b c0 f6 92 f8 bf 3e bc 31 bf b1 28 43 bf
       -2.6826935 -1.9419849 -0.6942786 -0.76233965
000280 28 6c 6a bf 90 f4 de be 64 63 23 bf ff 8f b1 bd
       -0.91571283 -0.4354596 -0.63823533 -0.08670043
000290 98 f7 d1 3e c2 a5 42 be b6 2b 5f c0 cc 2f 12 3d
       0.41009212 -0.19008544 -3.487043 0.035690114
0002a0 90 10 fd 3e 9b d7 21 be 8a 2f 52 c0 04 8a 8b be
       0.494267 -0.15804903 -3.2841516 -0.27253735
0002b0 ae 75 1c bf af e8 83 bf 5d e3 8f c0 22 58 9f c0
       -0.61117065 -1.0305384 -4.4965043 -4.9795084
0002c0 83 75 32 c0 1f 78 4c c0 ba af 2a c0 0a 16 d5 3d
       -2.7884223 -3.1948316 -2.6669755 0.10404594
0002d0 ef 93 56 3f bb ba 8a 3f 9d 4b b3 bf 90 97 b5 3f
       0.8381948 1.0838236 -1.400745 1.4186878
0002e0 de 9d 87 c0 f8 0e 97 3d
       -4.238021 0.07375902
